…
   "cell_type": "code",
   "execution_count": 144,
   "metadata": {},
   "outputs": [
    {
     "name": "stdout",
     "output_type": "stream",
     "text": [
      "BUILD MODEL\n",
      "COMPILE\n",
      "Model: \"model_2\"\n",
      "__________________________________________________________________________________________________\n",
      "Layer (type)                    Output Shape         Param #     Connected to                     \n",
      "==================================================================================================\n",
      "input_2 (InputLayer)            [(None, 101, 101, 1) 0                                            \n",
      "__________________________________________________________________________________________________\n",
      "conv2d_46 (Conv2D)              (None, 101, 101, 16) 160         input_2[0][0]                    \n",
      "__________________________________________________________________________________________________\n",
      "batch_normalization_45 (BatchNo (None, 101, 101, 16) 64          conv2d_46[0][0]                  \n",
      "__________________________________________________________________________________________________\n",
      "activation_46 (Activation)      (None, 101, 101, 16) 0           batch_normalization_45[0][0]     \n",
      "__________________________________________________________________________________________________\n",
      "conv2d_47 (Conv2D)              (None, 101, 101, 16) 2320        activation_46[0][0]              \n",
      "__________________________________________________________________________________________________\n",
      "batch_normalization_46 (BatchNo (None, 101, 101, 16) 64          conv2d_47[0][0]                  \n",
      "__________________________________________________________________________________________________\n",
      "activation_47 (Activation)      (None, 101, 101, 16) 0           batch_normalization_46[0][0]     \n",
      "__________________________________________________________________________________________________\n",
      "conv2d_48 (Conv2D)              (None, 101, 101, 16) 2320        activation_47[0][0]              \n",
      "__________________________________________________________________________________________________\n",
      "add_18 (Add)                    (None, 101, 101, 16) 0           conv2d_48[0][0]                  \n",
      "                                                                 conv2d_46[0][0]                  \n",
      "__________________________________________________________________________________________________\n",
      "batch_normalization_47 (BatchNo (None, 101, 101, 16) 64          add_18[0][0]                     \n",
      "__________________________________________________________________________________________________\n",
      "activation_48 (Activation)      (None, 101, 101, 16) 0           batch_normalization_47[0][0]     \n",
      "__________________________________________________________________________________________________\n",
      "conv2d_49 (Conv2D)              (None, 101, 101, 16) 2320        activation_48[0][0]              \n",
      "__________________________________________________________________________________________________\n",
      "batch_normalization_48 (BatchNo (None, 101, 101, 16) 64          conv2d_49[0][0]                  \n",
      "__________________________________________________________________________________________________\n",
      "activation_49 (Activation)      (None, 101, 101, 16) 0           batch_normalization_48[0][0]     \n",
      "__________________________________________________________________________________________________\n",
      "conv2d_50 (Conv2D)              (None, 101, 101, 16) 2320        activation_49[0][0]              \n",
      "__________________________________________________________________________________________________\n",
      "add_19 (Add)                    (None, 101, 101, 16) 0           conv2d_50[0][0]                  \n",
      "                                                                 add_18[0][0]                     \n",
      "__________________________________________________________________________________________________\n",
      "batch_normalization_49 (BatchNo (None, 101, 101, 16) 64          add_19[0][0]                     \n",
      "__________________________________________________________________________________________________\n",
      "activation_50 (Activation)      (None, 101, 101, 16) 0           batch_normalization_49[0][0]     \n",
      "__________________________________________________________________________________________________\n",
      "max_pooling2d_4 (MaxPooling2D)  (None, 50, 50, 16)   0           activation_50[0][0]              \n",
      "__________________________________________________________________________________________________\n",
      "dropout_8 (Dropout)             (None, 50, 50, 16)   0           max_pooling2d_4[0][0]            \n",
      "__________________________________________________________________________________________________\n",
      "conv2d_51 (Conv2D)              (None, 50, 50, 32)   4640        dropout_8[0][0]                  \n",
      "__________________________________________________________________________________________________\n",
      "batch_normalization_50 (BatchNo (None, 50, 50, 32)   128         conv2d_51[0][0]                  \n",
      "__________________________________________________________________________________________________\n",
      "activation_51 (Activation)      (None, 50, 50, 32)   0           batch_normalization_50[0][0]     \n",
      "__________________________________________________________________________________________________\n",
      "conv2d_52 (Conv2D)              (None, 50, 50, 32)   9248        activation_51[0][0]              \n",
      "__________________________________________________________________________________________________\n",
      "batch_normalization_51 (BatchNo (None, 50, 50, 32)   128         conv2d_52[0][0]                  \n",
      "__________________________________________________________________________________________________\n",
      "activation_52 (Activation)      (None, 50, 50, 32)   0           batch_normalization_51[0][0]     \n",
      "__________________________________________________________________________________________________\n",
      "conv2d_53 (Conv2D)              (None, 50, 50, 32)   9248        activation_52[0][0]              \n",
      "__________________________________________________________________________________________________\n",
      "add_20 (Add)                    (None, 50, 50, 32)   0           conv2d_53[0][0]                  \n",
      "                                                                 conv2d_51[0][0]                  \n",
      "__________________________________________________________________________________________________\n",
      "batch_normalization_52 (BatchNo (None, 50, 50, 32)   128         add_20[0][0]                     \n",
      "__________________________________________________________________________________________________\n",
      "activation_53 (Activation)      (None, 50, 50, 32)   0           batch_normalization_52[0][0]     \n",
      "__________________________________________________________________________________________________\n",
      "conv2d_54 (Conv2D)              (None, 50, 50, 32)   9248        activation_53[0][0]              \n",
      "__________________________________________________________________________________________________\n",
      "batch_normalization_53 (BatchNo (None, 50, 50, 32)   128         conv2d_54[0][0]                  \n",
      "__________________________________________________________________________________________________\n",
      "activation_54 (Activation)      (None, 50, 50, 32)   0           batch_normalization_53[0][0]     \n",
      "__________________________________________________________________________________________________\n",
      "conv2d_55 (Conv2D)              (None, 50, 50, 32)   9248        activation_54[0][0]              \n",
      "__________________________________________________________________________________________________\n",
      "add_21 (Add)                    (None, 50, 50, 32)   0           conv2d_55[0][0]                  \n",
      "                                                                 add_20[0][0]                     \n",
      "__________________________________________________________________________________________________\n",
      "batch_normalization_54 (BatchNo (None, 50, 50, 32)   128         add_21[0][0]                     \n",
      "__________________________________________________________________________________________________\n",
      "activation_55 (Activation)      (None, 50, 50, 32)   0           batch_normalization_54[0][0]     \n",
      "__________________________________________________________________________________________________\n",
      "max_pooling2d_5 (MaxPooling2D)  (None, 25, 25, 32)   0           activation_55[0][0]              \n",
      "__________________________________________________________________________________________________\n",
      "dropout_9 (Dropout)             (None, 25, 25, 32)   0           max_pooling2d_5[0][0]            \n",
      "__________________________________________________________________________________________________\n",
      "conv2d_56 (Conv2D)              (None, 25, 25, 64)   18496       dropout_9[0][0]                  \n",
      "__________________________________________________________________________________________________\n",
      "batch_normalization_55 (BatchNo (None, 25, 25, 64)   256         conv2d_56[0][0]                  \n",
      "__________________________________________________________________________________________________\n",
      "activation_56 (Activation)      (None, 25, 25, 64)   0           batch_normalization_55[0][0]     \n",
      "__________________________________________________________________________________________________\n",
      "conv2d_57 (Conv2D)              (None, 25, 25, 64)   36928       activation_56[0][0]              \n",
      "__________________________________________________________________________________________________\n",
      "batch_normalization_56 (BatchNo (None, 25, 25, 64)   256         conv2d_57[0][0]                  \n",
      "__________________________________________________________________________________________________\n",
      "activation_57 (Activation)      (None, 25, 25, 64)   0           batch_normalization_56[0][0]     \n",
      "__________________________________________________________________________________________________\n",
      "conv2d_58 (Conv2D)              (None, 25, 25, 64)   36928       activation_57[0][0]              \n",
      "__________________________________________________________________________________________________\n",
      "add_22 (Add)                    (None, 25, 25, 64)   0           conv2d_58[0][0]                  \n",
      "                                                                 conv2d_56[0][0]                  \n",
      "__________________________________________________________________________________________________\n",
      "batch_normalization_57 (BatchNo (None, 25, 25, 64)   256         add_22[0][0]                     \n",
      "__________________________________________________________________________________________________\n",
      "activation_58 (Activation)      (None, 25, 25, 64)   0           batch_normalization_57[0][0]     \n",
      "__________________________________________________________________________________________________\n",
      "conv2d_59 (Conv2D)              (None, 25, 25, 64)   36928       activation_58[0][0]              \n",
      "__________________________________________________________________________________________________\n",
      "batch_normalization_58 (BatchNo (None, 25, 25, 64)   256         conv2d_59[0][0]                  \n",
      "__________________________________________________________________________________________________\n",
      "activation_59 (Activation)      (None, 25, 25, 64)   0           batch_normalization_58[0][0]     \n",
      "__________________________________________________________________________________________________\n",
      "conv2d_60 (Conv2D)              (None, 25, 25, 64)   36928       activation_59[0][0]              \n",
      "__________________________________________________________________________________________________\n",
      "add_23 (Add)                    (None, 25, 25, 64)   0           conv2d_60[0][0]                  \n",
      "                                                                 add_22[0][0]                     \n",
      "__________________________________________________________________________________________________\n",
      "batch_normalization_59 (BatchNo (None, 25, 25, 64)   256         add_23[0][0]                     \n",
      "__________________________________________________________________________________________________\n",
      "activation_60 (Activation)      (None, 25, 25, 64)   0           batch_normalization_59[0][0]     \n",
      "__________________________________________________________________________________________________\n",
      "max_pooling2d_6 (MaxPooling2D)  (None, 12, 12, 64)   0           activation_60[0][0]              \n",
      "__________________________________________________________________________________________________\n",
      "dropout_10 (Dropout)            (None, 12, 12, 64)   0           max_pooling2d_6[0][0]            \n",
      "__________________________________________________________________________________________________\n",
      "conv2d_61 (Conv2D)              (None, 12, 12, 128)  73856       dropout_10[0][0]                 \n",
      "__________________________________________________________________________________________________\n",
      "batch_normalization_60 (BatchNo (None, 12, 12, 128)  512         conv2d_61[0][0]                  \n",
      "__________________________________________________________________________________________________\n",
      "activation_61 (Activation)      (None, 12, 12, 128)  0           batch_normalization_60[0][0]     \n",
      "__________________________________________________________________________________________________\n",
      "conv2d_62 (Conv2D)              (None, 12, 12, 128)  147584      activation_61[0][0]              \n",
      "__________________________________________________________________________________________________\n",
      "batch_normalization_61 (BatchNo (None, 12, 12, 128)  512         conv2d_62[0][0]                  \n",
      "__________________________________________________________________________________________________\n",
      "activation_62 (Activation)      (None, 12, 12, 128)  0           batch_normalization_61[0][0]     \n",
      "__________________________________________________________________________________________________\n",
      "conv2d_63 (Conv2D)              (None, 12, 12, 128)  147584      activation_62[0][0]              \n",
      "__________________________________________________________________________________________________\n",
      "add_24 (Add)                    (None, 12, 12, 128)  0           conv2d_63[0][0]                  \n",
      "                                                                 conv2d_61[0][0]                  \n",
      "__________________________________________________________________________________________________\n",
      "batch_normalization_62 (BatchNo (None, 12, 12, 128)  512         add_24[0][0]                     \n",
      "__________________________________________________________________________________________________\n",
      "activation_63 (Activation)      (None, 12, 12, 128)  0           batch_normalization_62[0][0]     \n",
      "__________________________________________________________________________________________________\n",
      "conv2d_64 (Conv2D)              (None, 12, 12, 128)  147584      activation_63[0][0]              \n",
      "__________________________________________________________________________________________________\n",
      "batch_normalization_63 (BatchNo (None, 12, 12, 128)  512         conv2d_64[0][0]                  \n",
      "__________________________________________________________________________________________________\n",
      "activation_64 (Activation)      (None, 12, 12, 128)  0           batch_normalization_63[0][0]     \n",
      "__________________________________________________________________________________________________\n",
      "conv2d_65 (Conv2D)              (None, 12, 12, 128)  147584      activation_64[0][0]              \n",
      "__________________________________________________________________________________________________\n",
      "add_25 (Add)                    (None, 12, 12, 128)  0           conv2d_65[0][0]                  \n",
      "                                                                 add_24[0][0]                     \n",
      "__________________________________________________________________________________________________\n",
      "batch_normalization_64 (BatchNo (None, 12, 12, 128)  512         add_25[0][0]                     \n",
      "__________________________________________________________________________________________________\n",
      "activation_65 (Activation)      (None, 12, 12, 128)  0           batch_normalization_64[0][0]     \n",
      "__________________________________________________________________________________________________\n",
      "max_pooling2d_7 (MaxPooling2D)  (None, 6, 6, 128)    0           activation_65[0][0]              \n",
      "__________________________________________________________________________________________________\n",
      "dropout_11 (Dropout)            (None, 6, 6, 128)    0           max_pooling2d_7[0][0]            \n",
      "__________________________________________________________________________________________________\n",
      "conv2d_66 (Conv2D)              (None, 6, 6, 256)    295168      dropout_11[0][0]                 \n",
      "__________________________________________________________________________________________________\n",
      "batch_normalization_65 (BatchNo (None, 6, 6, 256)    1024        conv2d_66[0][0]                  \n",
      "__________________________________________________________________________________________________\n",
      "activation_66 (Activation)      (None, 6, 6, 256)    0           batch_normalization_65[0][0]     \n",
      "__________________________________________________________________________________________________\n",
      "conv2d_67 (Conv2D)              (None, 6, 6, 256)    590080      activation_66[0][0]              \n",
      "__________________________________________________________________________________________________\n",
      "batch_normalization_66 (BatchNo (None, 6, 6, 256)    1024        conv2d_67[0][0]                  \n",
      "__________________________________________________________________________________________________\n",
      "activation_67 (Activation)      (None, 6, 6, 256)    0           batch_normalization_66[0][0]     \n",
      "__________________________________________________________________________________________________\n",
      "conv2d_68 (Conv2D)              (None, 6, 6, 256)    590080      activation_67[0][0]              \n",
      "__________________________________________________________________________________________________\n",
      "add_26 (Add)                    (None, 6, 6, 256)    0           conv2d_68[0][0]                  \n",
      "                                                                 conv2d_66[0][0]                  \n",
      "__________________________________________________________________________________________________\n",
      "batch_normalization_67 (BatchNo (None, 6, 6, 256)    1024        add_26[0][0]                     \n",
      "__________________________________________________________________________________________________\n",
      "activation_68 (Activation)      (None, 6, 6, 256)    0           batch_normalization_67[0][0]     \n",
      "__________________________________________________________________________________________________\n",
      "conv2d_69 (Conv2D)              (None, 6, 6, 256)    590080      activation_68[0][0]              \n",
      "__________________________________________________________________________________________________\n",
      "batch_normalization_68 (BatchNo (None, 6, 6, 256)    1024        conv2d_69[0][0]                  \n",
      "__________________________________________________________________________________________________\n",
      "activation_69 (Activation)      (None, 6, 6, 256)    0           batch_normalization_68[0][0]     \n",
      "__________________________________________________________________________________________________\n",
      "conv2d_70 (Conv2D)              (None, 6, 6, 256)    590080      activation_69[0][0]              \n",
      "__________________________________________________________________________________________________\n",
      "add_27 (Add)                    (None, 6, 6, 256)    0           conv2d_70[0][0]                  \n",
      "                                                                 add_26[0][0]                     \n",
      "__________________________________________________________________________________________________\n",
      "batch_normalization_69 (BatchNo (None, 6, 6, 256)    1024        add_27[0][0]                     \n",
      "__________________________________________________________________________________________________\n",
      "activation_70 (Activation)      (None, 6, 6, 256)    0           batch_normalization_69[0][0]     \n",
      "__________________________________________________________________________________________________\n",
      "conv2d_transpose_4 (Conv2DTrans (None, 12, 12, 128)  295040      activation_70[0][0]              \n",
      "__________________________________________________________________________________________________\n",
      "concatenate_4 (Concatenate)     (None, 12, 12, 256)  0           conv2d_transpose_4[0][0]         \n",
      "                                                                 activation_65[0][0]              \n",
      "__________________________________________________________________________________________________\n",
      "dropout_12 (Dropout)            (None, 12, 12, 256)  0           concatenate_4[0][0]              \n",
      "__________________________________________________________________________________________________\n",
      "conv2d_71 (Conv2D)              (None, 12, 12, 128)  295040      dropout_12[0][0]                 \n",
      "__________________________________________________________________________________________________\n",
      "batch_normalization_70 (BatchNo (None, 12, 12, 128)  512         conv2d_71[0][0]                  \n",
      "__________________________________________________________________________________________________\n",
      "activation_71 (Activation)      (None, 12, 12, 128)  0           batch_normalization_70[0][0]     \n",
      "__________________________________________________________________________________________________\n",
      "conv2d_72 (Conv2D)              (None, 12, 12, 128)  147584      activation_71[0][0]              \n",
      "__________________________________________________________________________________________________\n",
      "batch_normalization_71 (BatchNo (None, 12, 12, 128)  512         conv2d_72[0][0]                  \n",
      "__________________________________________________________________________________________________\n",
      "activation_72 (Activation)      (None, 12, 12, 128)  0           batch_normalization_71[0][0]     \n",
      "__________________________________________________________________________________________________\n",
      "conv2d_73 (Conv2D)              (None, 12, 12, 128)  147584      activation_72[0][0]              \n",
      "__________________________________________________________________________________________________\n",
      "add_28 (Add)                    (None, 12, 12, 128)  0           conv2d_73[0][0]                  \n",
      "                                                                 conv2d_71[0][0]                  \n",
      "__________________________________________________________________________________________________\n",
      "batch_normalization_72 (BatchNo (None, 12, 12, 128)  512         add_28[0][0]                     \n",
      "__________________________________________________________________________________________________\n",
      "activation_73 (Activation)      (None, 12, 12, 128)  0           batch_normalization_72[0][0]     \n",
      "__________________________________________________________________________________________________\n",
      "conv2d_74 (Conv2D)              (None, 12, 12, 128)  147584      activation_73[0][0]              \n",
      "__________________________________________________________________________________________________\n",
      "batch_normalization_73 (BatchNo (None, 12, 12, 128)  512         conv2d_74[0][0]                  \n",
      "__________________________________________________________________________________________________\n",
      "activation_74 (Activation)      (None, 12, 12, 128)  0           batch_normalization_73[0][0]     \n",
      "__________________________________________________________________________________________________\n",
      "conv2d_75 (Conv2D)              (None, 12, 12, 128)  147584      activation_74[0][0]              \n",
      "__________________________________________________________________________________________________\n",
      "add_29 (Add)                    (None, 12, 12, 128)  0           conv2d_75[0][0]                  \n",
      "                                                                 add_28[0][0]                     \n",
      "__________________________________________________________________________________________________\n",
      "batch_normalization_74 (BatchNo (None, 12, 12, 128)  512         add_29[0][0]                     \n",
      "__________________________________________________________________________________________________\n",
      "activation_75 (Activation)      (None, 12, 12, 128)  0           batch_normalization_74[0][0]     \n",
      "__________________________________________________________________________________________________\n",
      "conv2d_transpose_5 (Conv2DTrans (None, 25, 25, 64)   73792       activation_75[0][0]              \n",
      "__________________________________________________________________________________________________\n",
      "concatenate_5 (Concatenate)     (None, 25, 25, 128)  0           conv2d_transpose_5[0][0]         \n",
      "                                                                 activation_60[0][0]              \n",
      "__________________________________________________________________________________________________\n",
      "dropout_13 (Dropout)            (None, 25, 25, 128)  0           concatenate_5[0][0]              \n",
      "__________________________________________________________________________________________________\n",
      "conv2d_76 (Conv2D)              (None, 25, 25, 64)   73792       dropout_13[0][0]                 \n",
      "__________________________________________________________________________________________________\n",
      "batch_normalization_75 (BatchNo (None, 25, 25, 64)   256         conv2d_76[0][0]                  \n",
      "__________________________________________________________________________________________________\n",
      "activation_76 (Activation)      (None, 25, 25, 64)   0           batch_normalization_75[0][0]     \n",
      "__________________________________________________________________________________________________\n",
      "conv2d_77 (Conv2D)              (None, 25, 25, 64)   36928       activation_76[0][0]              \n",
      "__________________________________________________________________________________________________\n",
      "batch_normalization_76 (BatchNo (None, 25, 25, 64)   256         conv2d_77[0][0]                  \n",
      "__________________________________________________________________________________________________\n",
      "activation_77 (Activation)      (None, 25, 25, 64)   0           batch_normalization_76[0][0]     \n",
      "__________________________________________________________________________________________________\n",
      "conv2d_78 (Conv2D)              (None, 25, 25, 64)   36928       activation_77[0][0]              \n",
      "__________________________________________________________________________________________________\n",
      "add_30 (Add)                    (None, 25, 25, 64)   0           conv2d_78[0][0]                  \n",
      "                                                                 conv2d_76[0][0]                  \n",
      "__________________________________________________________________________________________________\n",
      "batch_normalization_77 (BatchNo (None, 25, 25, 64)   256         add_30[0][0]                     \n",
      "__________________________________________________________________________________________________\n",
      "activation_78 (Activation)      (None, 25, 25, 64)   0           batch_normalization_77[0][0]     \n",
      "__________________________________________________________________________________________________\n",
      "conv2d_79 (Conv2D)              (None, 25, 25, 64)   36928       activation_78[0][0]              \n",
      "__________________________________________________________________________________________________\n",
      "batch_normalization_78 (BatchNo (None, 25, 25, 64)   256         conv2d_79[0][0]                  \n",
      "__________________________________________________________________________________________________\n",
      "activation_79 (Activation)      (None, 25, 25, 64)   0           batch_normalization_78[0][0]     \n",
      "__________________________________________________________________________________________________\n",
      "conv2d_80 (Conv2D)              (None, 25, 25, 64)   36928       activation_79[0][0]              \n",
      "__________________________________________________________________________________________________\n",
      "add_31 (Add)                    (None, 25, 25, 64)   0           conv2d_80[0][0]                  \n",
      "                                                                 add_30[0][0]                     \n",
      "__________________________________________________________________________________________________\n",
      "batch_normalization_79 (BatchNo (None, 25, 25, 64)   256         add_31[0][0]                     \n",
      "__________________________________________________________________________________________________\n",
      "activation_80 (Activation)      (None, 25, 25, 64)   0           batch_normalization_79[0][0]     \n",
      "__________________________________________________________________________________________________\n",
      "conv2d_transpose_6 (Conv2DTrans (None, 50, 50, 32)   18464       activation_80[0][0]              \n",
      "__________________________________________________________________________________________________\n",
      "concatenate_6 (Concatenate)     (None, 50, 50, 64)   0           conv2d_transpose_6[0][0]         \n",
      "                                                                 activation_55[0][0]              \n",
      "__________________________________________________________________________________________________\n",
      "dropout_14 (Dropout)            (None, 50, 50, 64)   0           concatenate_6[0][0]              \n",
      "__________________________________________________________________________________________________\n",
      "conv2d_81 (Conv2D)              (None, 50, 50, 32)   18464       dropout_14[0][0]                 \n",
      "__________________________________________________________________________________________________\n",
      "batch_normalization_80 (BatchNo (None, 50, 50, 32)   128         conv2d_81[0][0]                  \n",
      "__________________________________________________________________________________________________\n",
      "activation_81 (Activation)      (None, 50, 50, 32)   0           batch_normalization_80[0][0]     \n",
      "__________________________________________________________________________________________________\n",
      "conv2d_82 (Conv2D)              (None, 50, 50, 32)   9248        activation_81[0][0]              \n",
      "__________________________________________________________________________________________________\n",
      "batch_normalization_81 (BatchNo (None, 50, 50, 32)   128         conv2d_82[0][0]                  \n",
      "__________________________________________________________________________________________________\n",
      "activation_82 (Activation)      (None, 50, 50, 32)   0           batch_normalization_81[0][0]     \n",
      "__________________________________________________________________________________________________\n",
      "conv2d_83 (Conv2D)              (None, 50, 50, 32)   9248        activation_82[0][0]              \n",
      "__________________________________________________________________________________________________\n",
      "add_32 (Add)                    (None, 50, 50, 32)   0           conv2d_83[0][0]                  \n",
      "                                                                 conv2d_81[0][0]                  \n",
      "__________________________________________________________________________________________________\n",
      "batch_normalization_82 (BatchNo (None, 50, 50, 32)   128         add_32[0][0]                     \n",
      "__________________________________________________________________________________________________\n",
      "activation_83 (Activation)      (None, 50, 50, 32)   0           batch_normalization_82[0][0]     \n",
      "__________________________________________________________________________________________________\n",
      "conv2d_84 (Conv2D)              (None, 50, 50, 32)   9248        activation_83[0][0]              \n",
      "__________________________________________________________________________________________________\n",
      "batch_normalization_83 (BatchNo (None, 50, 50, 32)   128         conv2d_84[0][0]                  \n",
      "__________________________________________________________________________________________________\n",
      "activation_84 (Activation)      (None, 50, 50, 32)   0           batch_normalization_83[0][0]     \n",
      "__________________________________________________________________________________________________\n",
      "conv2d_85 (Conv2D)              (None, 50, 50, 32)   9248        activation_84[0][0]              \n",
      "__________________________________________________________________________________________________\n",
      "add_33 (Add)                    (None, 50, 50, 32)   0           conv2d_85[0][0]                  \n",
      "                                                                 add_32[0][0]                     \n",
      "__________________________________________________________________________________________________\n",
      "batch_normalization_84 (BatchNo (None, 50, 50, 32)   128         add_33[0][0]                     \n",
      "__________________________________________________________________________________________________\n",
      "activation_85 (Activation)      (None, 50, 50, 32)   0           batch_normalization_84[0][0]     \n",
      "__________________________________________________________________________________________________\n",
      "conv2d_transpose_7 (Conv2DTrans (None, 101, 101, 16) 4624        activation_85[0][0]              \n",
      "__________________________________________________________________________________________________\n",
      "concatenate_7 (Concatenate)     (None, 101, 101, 32) 0           conv2d_transpose_7[0][0]         \n",
      "                                                                 activation_50[0][0]              \n",
      "__________________________________________________________________________________________________\n",
      "dropout_15 (Dropout)            (None, 101, 101, 32) 0           concatenate_7[0][0]              \n",
      "__________________________________________________________________________________________________\n",
      "conv2d_86 (Conv2D)              (None, 101, 101, 16) 4624        dropout_15[0][0]                 \n",
      "__________________________________________________________________________________________________\n",
      "batch_normalization_85 (BatchNo (None, 101, 101, 16) 64          conv2d_86[0][0]                  \n",
      "__________________________________________________________________________________________________\n",
      "activation_86 (Activation)      (None, 101, 101, 16) 0           batch_normalization_85[0][0]     \n",
      "__________________________________________________________________________________________________\n",
      "conv2d_87 (Conv2D)              (None, 101, 101, 16) 2320        activation_86[0][0]              \n",
      "__________________________________________________________________________________________________\n",
      "batch_normalization_86 (BatchNo (None, 101, 101, 16) 64          conv2d_87[0][0]                  \n",
      "__________________________________________________________________________________________________\n",
      "activation_87 (Activation)      (None, 101, 101, 16) 0           batch_normalization_86[0][0]     \n",
      "__________________________________________________________________________________________________\n",
      "conv2d_88 (Conv2D)              (None, 101, 101, 16) 2320        activation_87[0][0]              \n",
      "__________________________________________________________________________________________________\n",
      "add_34 (Add)                    (None, 101, 101, 16) 0           conv2d_88[0][0]                  \n",
      "                                                                 conv2d_86[0][0]                  \n",
      "__________________________________________________________________________________________________\n",
      "batch_normalization_87 (BatchNo (None, 101, 101, 16) 64          add_34[0][0]                     \n",
      "__________________________________________________________________________________________________\n",
      "activation_88 (Activation)      (None, 101, 101, 16) 0           batch_normalization_87[0][0]     \n",
      "__________________________________________________________________________________________________\n",
      "conv2d_89 (Conv2D)              (None, 101, 101, 16) 2320        activation_88[0][0]              \n",
      "__________________________________________________________________________________________________\n",
      "batch_normalization_88 (BatchNo (None, 101, 101, 16) 64          conv2d_89[0][0]                  \n",
      "__________________________________________________________________________________________________\n",
      "activation_89 (Activation)      (None, 101, 101, 16) 0           batch_normalization_88[0][0]     \n",
      "__________________________________________________________________________________________________\n",
      "conv2d_90 (Conv2D)              (None, 101, 101, 16) 2320        activation_89[0][0]              \n",
      "__________________________________________________________________________________________________\n",
      "add_35 (Add)                    (None, 101, 101, 16) 0           conv2d_90[0][0]                  \n",
      "                                                                 add_34[0][0]                     \n",
      "__________________________________________________________________________________________________\n",
      "batch_normalization_89 (BatchNo (None, 101, 101, 16) 64          add_35[0][0]                     \n",
      "__________________________________________________________________________________________________\n",
      "activation_90 (Activation)      (None, 101, 101, 16) 0           batch_normalization_89[0][0]     \n",
      "__________________________________________________________________________________________________\n",
      "conv2d_91 (Conv2D)              (None, 101, 101, 1)  17          activation_90[0][0]              \n",
      "__________________________________________________________________________________________________\n",
      "activation_91 (Activation)      (None, 101, 101, 1)  0           conv2d_91[0][0]                  \n",
      "==================================================================================================\n",
      "Total params: 5,119,857\n",
      "Trainable params: 5,112,497\n",
      "Non-trainable params: 7,360\n",
      "__________________________________________________________________________________________________\n"
     ]
    }
   ],
   "source": [
…
